…
I0409 03:30:23.021790 13743 net.cpp:294] The NetState phase (0) differed from the phase (1) specified by a rule in layer accuracy
I0409 03:30:23.021941 13743 net.cpp:51] Initializing net from parameters: 
name: "FaceEmotionNet"
state {
  phase: TRAIN
}
layer {
  name: "data"
  type: "Data"
  top: "data"
  top: "label"
  include {
    phase: TRAIN
  }
  transform_param {
    mirror: true
    crop_size: 42
    mean_file: "../../Preprocessing/data/train_mean.binaryproto"
  }
  data_param {
    source: "../../Preprocessing/data/img_train_lmdb"
    batch_size: 64
    backend: LMDB
  }
}
layer {
  name: "conv1"
  type: "Convolution"
  bottom: "data"
  top: "conv1"
  param {
    lr_mult: 1
  }
  param {
    lr_mult: 2
  }
  convolution_param {
    num_output: 32
    pad: 2
    kernel_size: 5
    stride: 1
    weight_filler {
      type: "xavier"
    }
    bias_filler {
      type: "constant"
    }
  }
}
layer {
  name: "conv1/bn"
  type: "BatchNorm"
  bottom: "conv1"
  top: "conv1"
  param {
    lr_mult: 0
    decay_mult: 0
  }
  param {
    lr_mult: 0
    decay_mult: 0
  }
  param {
    lr_mult: 0
    decay_mult: 0
  }
}
layer {
  name: "relu1"
  type: "ReLU"
  bottom: "conv1"
  top: "conv1"
}
layer {
  name: "pool1"
  type: "Pooling"
  bottom: "conv1"
  top: "pool1"
  pooling_param {
    pool: MAX
    kernel_size: 3
    stride: 2
  }
}
layer {
  name: "conv2"
  type: "Convolution"
  bottom: "pool1"
  top: "conv2"
  param {
    lr_mult: 1
  }
  param {
    lr_mult: 2
  }
  convolution_param {
    num_output: 32
    pad: 1
    kernel_size: 4
    stride: 1
    weight_filler {
      type: "xavier"
    }
    bias_filler {
      type: "constant"
    }
  }
}
layer {
  name: "conv2/bn"
  type: "BatchNorm"
  bottom: "conv2"
  top: "conv2"
  param {
    lr_mult: 0
    decay_mult: 0
  }
  param {
    lr_mult: 0
    decay_mult: 0
  }
  param {
    lr_mult: 0
    decay_mult: 0
  }
}
layer {
  name: "relu2"
  type: "ReLU"
  bottom: "conv2"
  top: "conv2"
}
layer {
  name: "pool2"
  type: "Pooling"
  bottom: "conv2"
  top: "pool2"
  pooling_param {
    pool: MAX
    kernel_size: 3
    stride: 2
  }
}
layer {
  name: "conv3"
  type: "Convolution"
  bottom: "pool2"
  top: "conv3"
  param {
    lr_mult: 1
  }
  param {
    lr_mult: 2
  }
  convolution_param {
    num_output: 64
    pad: 2
    kernel_size: 5
    stride: 1
    weight_filler {
      type: "xavier"
    }
    bias_filler {
      type: "constant"
    }
  }
}
layer {
  name: "conv3/bn"
  type: "BatchNorm"
  bottom: "conv3"
  top: "conv3"
  param {
    lr_mult: 0
    decay_mult: 0
  }
  param {
    lr_mult: 0
    decay_mult: 0
  }
  param {
    lr_mult: 0
    decay_mult: 0
  }
}
layer {
  name: "relu3"
  type: "ReLU"
  bottom: "conv3"
  top: "conv3"
}
layer {
  name: "pool3"
  type: "Pooling"
  bottom: "conv3"
  top: "pool3"
  pooling_param {
    pool: MAX
    kernel_size: 3
    stride: 2
  }
}
layer {
  name: "fc1"
  type: "InnerProduct"
  bottom: "pool3"
  top: "fc1"
  param {
    lr_mult: 1
  }
  param {
    lr_mult: 2
  }
  inner_product_param {
    num_output: 2048
    weight_filler {
      type: "xavier"
    }
    bias_filler {
      type: "constant"
    }
  }
}
layer {
  name: "drop1"
  type: "Dropout"
  bottom: "fc1"
  top: "fc1"
  dropout_param {
    dropout_ratio: 0.4
  }
}
layer {
  name: "fc2"
  type: "InnerProduct"
  bottom: "fc1"
  top: "fc2"
  param {
    lr_mult: 1
  }
  param {
    lr_mult: 2
  }
  inner_product_param {
    num_output: 1024
    weight_filler {
      type: "xavier"
    }
    bias_filler {
      type: "constant"
    }
  }
}
layer {
  name: "drop2"
  type: "Dropout"
  bottom: "fc2"
  top: "fc2"
  dropout_param {
    dropout_ratio: 0.4
  }
}
layer {
  name: "fc3"
  type: "InnerProduct"
  bottom: "fc2"
  top: "fc3"
  param {
    lr_mult: 1
  }
  param {
    lr_mult: 2
  }
  inner_product_param {
    num_output: 7
    weight_filler {
      type: "xavier"
    }
    bias_filler {
      type: "constant"
    }
  }
}
layer {
  name: "Softmax_loss"
  type: "SoftmaxWithLoss"
  bottom: "fc3"
  bottom: "label"
  top: "Softmax_loss"
}
I0409 03:30:23.022020 13743 layer_factory.hpp:77] Creating layer data
I0409 03:30:23.022119 13743 db_lmdb.cpp:35] Opened lmdb ../../Preprocessing/data/img_train_lmdb
I0409 03:30:23.022141 13743 net.cpp:84] Creating Layer data
I0409 03:30:23.022148 13743 net.cpp:380] data -> data
I0409 03:30:23.022159 13743 net.cpp:380] data -> label
I0409 03:30:23.022186 13743 data_transformer.cpp:25] Loading mean file from: ../../Preprocessing/data/train_mean.binaryproto
I0409 03:30:23.023705 13743 data_layer.cpp:45] output data size: 64,1,42,42
I0409 03:30:23.026144 13743 net.cpp:122] Setting up data
I0409 03:30:23.026167 13743 net.cpp:129] Top shape: 64 1 42 42 (112896)
I0409 03:30:23.026175 13743 net.cpp:129] Top shape: 64 (64)
I0409 03:30:23.026176 13743 net.cpp:137] Memory required for data: 451840
I0409 03:30:23.026181 13743 layer_factory.hpp:77] Creating layer conv1
I0409 03:30:23.026229 13743 net.cpp:84] Creating Layer conv1
I0409 03:30:23.026247 13743 net.cpp:406] conv1 <- data
I0409 03:30:23.026257 13743 net.cpp:380] conv1 -> conv1
I0409 03:30:23.541817 13743 net.cpp:122] Setting up conv1
I0409 03:30:23.541872 13743 net.cpp:129] Top shape: 64 32 42 42 (3612672)
I0409 03:30:23.541878 13743 net.cpp:137] Memory required for data: 14902528
I0409 03:30:23.541901 13743 layer_factory.hpp:77] Creating layer conv1/bn
I0409 03:30:23.541926 13743 net.cpp:84] Creating Layer conv1/bn
I0409 03:30:23.541931 13743 net.cpp:406] conv1/bn <- conv1
I0409 03:30:23.541939 13743 net.cpp:367] conv1/bn -> conv1 (in-place)
I0409 03:30:23.542167 13743 net.cpp:122] Setting up conv1/bn
I0409 03:30:23.542196 13743 net.cpp:129] Top shape: 64 32 42 42 (3612672)
I0409 03:30:23.542199 13743 net.cpp:137] Memory required for data: 29353216
I0409 03:30:23.542209 13743 layer_factory.hpp:77] Creating layer relu1
I0409 03:30:23.542238 13743 net.cpp:84] Creating Layer relu1
I0409 03:30:23.542243 13743 net.cpp:406] relu1 <- conv1
I0409 03:30:23.542248 13743 net.cpp:367] relu1 -> conv1 (in-place)
I0409 03:30:23.542649 13743 net.cpp:122] Setting up relu1
I0409 03:30:23.542676 13743 net.cpp:129] Top shape: 64 32 42 42 (3612672)
I0409 03:30:23.542680 13743 net.cpp:137] Memory required for data: 43803904
I0409 03:30:23.542685 13743 layer_factory.hpp:77] Creating layer pool1
I0409 03:30:23.542693 13743 net.cpp:84] Creating Layer pool1
I0409 03:30:23.542697 13743 net.cpp:406] pool1 <- conv1
I0409 03:30:23.542703 13743 net.cpp:380] pool1 -> pool1
I0409 03:30:23.542750 13743 net.cpp:122] Setting up pool1
I0409 03:30:23.542768 13743 net.cpp:129] Top shape: 64 32 21 21 (903168)
I0409 03:30:23.542771 13743 net.cpp:137] Memory required for data: 47416576
I0409 03:30:23.542774 13743 layer_factory.hpp:77] Creating layer conv2
I0409 03:30:23.542786 13743 net.cpp:84] Creating Layer conv2
I0409 03:30:23.542790 13743 net.cpp:406] conv2 <- pool1
I0409 03:30:23.542796 13743 net.cpp:380] conv2 -> conv2
I0409 03:30:23.545315 13743 net.cpp:122] Setting up conv2
I0409 03:30:23.545347 13743 net.cpp:129] Top shape: 64 32 20 20 (819200)
I0409 03:30:23.545352 13743 net.cpp:137] Memory required for data: 50693376
I0409 03:30:23.545359 13743 layer_factory.hpp:77] Creating layer conv2/bn
I0409 03:30:23.545372 13743 net.cpp:84] Creating Layer conv2/bn
I0409 03:30:23.545377 13743 net.cpp:406] conv2/bn <- conv2
I0409 03:30:23.545384 13743 net.cpp:367] conv2/bn -> conv2 (in-place)
I0409 03:30:23.545593 13743 net.cpp:122] Setting up conv2/bn
I0409 03:30:23.545611 13743 net.cpp:129] Top shape: 64 32 20 20 (819200)
I0409 03:30:23.545615 13743 net.cpp:137] Memory required for data: 53970176
I0409 03:30:23.545624 13743 layer_factory.hpp:77] Creating layer relu2
I0409 03:30:23.545629 13743 net.cpp:84] Creating Layer relu2
I0409 03:30:23.545634 13743 net.cpp:406] relu2 <- conv2
I0409 03:30:23.545639 13743 net.cpp:367] relu2 -> conv2 (in-place)
I0409 03:30:23.545979 13743 net.cpp:122] Setting up relu2
I0409 03:30:23.546017 13743 net.cpp:129] Top shape: 64 32 20 20 (819200)
I0409 03:30:23.546021 13743 net.cpp:137] Memory required for data: 57246976
I0409 03:30:23.546025 13743 layer_factory.hpp:77] Creating layer pool2
I0409 03:30:23.546033 13743 net.cpp:84] Creating Layer pool2
I0409 03:30:23.546037 13743 net.cpp:406] pool2 <- conv2
I0409 03:30:23.546046 13743 net.cpp:380] pool2 -> pool2
I0409 03:30:23.546093 13743 net.cpp:122] Setting up pool2
I0409 03:30:23.546110 13743 net.cpp:129] Top shape: 64 32 10 10 (204800)
I0409 03:30:23.546114 13743 net.cpp:137] Memory required for data: 58066176
I0409 03:30:23.546118 13743 layer_factory.hpp:77] Creating layer conv3
I0409 03:30:23.546130 13743 net.cpp:84] Creating Layer conv3
I0409 03:30:23.546134 13743 net.cpp:406] conv3 <- pool2
I0409 03:30:23.546140 13743 net.cpp:380] conv3 -> conv3
I0409 03:30:23.548480 13743 net.cpp:122] Setting up conv3
I0409 03:30:23.548511 13743 net.cpp:129] Top shape: 64 64 10 10 (409600)
I0409 03:30:23.548516 13743 net.cpp:137] Memory required for data: 59704576
I0409 03:30:23.548523 13743 layer_factory.hpp:77] Creating layer conv3/bn
I0409 03:30:23.548530 13743 net.cpp:84] Creating Layer conv3/bn
I0409 03:30:23.548534 13743 net.cpp:406] conv3/bn <- conv3
I0409 03:30:23.548542 13743 net.cpp:367] conv3/bn -> conv3 (in-place)
I0409 03:30:23.548740 13743 net.cpp:122] Setting up conv3/bn
I0409 03:30:23.548758 13743 net.cpp:129] Top shape: 64 64 10 10 (409600)
I0409 03:30:23.548761 13743 net.cpp:137] Memory required for data: 61342976
I0409 03:30:23.548768 13743 layer_factory.hpp:77] Creating layer relu3
I0409 03:30:23.548774 13743 net.cpp:84] Creating Layer relu3
I0409 03:30:23.548777 13743 net.cpp:406] relu3 <- conv3
I0409 03:30:23.548782 13743 net.cpp:367] relu3 -> conv3 (in-place)
I0409 03:30:23.549275 13743 net.cpp:122] Setting up relu3
I0409 03:30:23.549302 13743 net.cpp:129] Top shape: 64 64 10 10 (409600)
I0409 03:30:23.549322 13743 net.cpp:137] Memory required for data: 62981376
I0409 03:30:23.549330 13743 layer_factory.hpp:77] Creating layer pool3
I0409 03:30:23.549357 13743 net.cpp:84] Creating Layer pool3
I0409 03:30:23.549361 13743 net.cpp:406] pool3 <- conv3
I0409 03:30:23.549367 13743 net.cpp:380] pool3 -> pool3
I0409 03:30:23.549419 13743 net.cpp:122] Setting up pool3
I0409 03:30:23.549451 13743 net.cpp:129] Top shape: 64 64 5 5 (102400)
I0409 03:30:23.549454 13743 net.cpp:137] Memory required for data: 63390976
I0409 03:30:23.549458 13743 layer_factory.hpp:77] Creating layer fc1
I0409 03:30:23.549468 13743 net.cpp:84] Creating Layer fc1
I0409 03:30:23.549471 13743 net.cpp:406] fc1 <- pool3
I0409 03:30:23.549476 13743 net.cpp:380] fc1 -> fc1
I0409 03:30:23.573372 13743 net.cpp:122] Setting up fc1
I0409 03:30:23.573420 13743 net.cpp:129] Top shape: 64 2048 (131072)
I0409 03:30:23.573424 13743 net.cpp:137] Memory required for data: 63915264
I0409 03:30:23.573438 13743 layer_factory.hpp:77] Creating layer drop1
I0409 03:30:23.573447 13743 net.cpp:84] Creating Layer drop1
I0409 03:30:23.573451 13743 net.cpp:406] drop1 <- fc1
I0409 03:30:23.573459 13743 net.cpp:367] drop1 -> fc1 (in-place)
I0409 03:30:23.573487 13743 net.cpp:122] Setting up drop1
I0409 03:30:23.573503 13743 net.cpp:129] Top shape: 64 2048 (131072)
I0409 03:30:23.573508 13743 net.cpp:137] Memory required for data: 64439552
I0409 03:30:23.573510 13743 layer_factory.hpp:77] Creating layer fc2
I0409 03:30:23.573518 13743 net.cpp:84] Creating Layer fc2
I0409 03:30:23.573521 13743 net.cpp:406] fc2 <- fc1
I0409 03:30:23.573530 13743 net.cpp:380] fc2 -> fc2
I0409 03:30:23.588790 13743 net.cpp:122] Setting up fc2
I0409 03:30:23.588815 13743 net.cpp:129] Top shape: 64 1024 (65536)
I0409 03:30:23.588819 13743 net.cpp:137] Memory required for data: 64701696
I0409 03:30:23.588842 13743 layer_factory.hpp:77] Creating layer drop2
I0409 03:30:23.588862 13743 net.cpp:84] Creating Layer drop2
I0409 03:30:23.588867 13743 net.cpp:406] drop2 <- fc2
I0409 03:30:23.588873 13743 net.cpp:367] drop2 -> fc2 (in-place)
I0409 03:30:23.588903 13743 net.cpp:122] Setting up drop2
I0409 03:30:23.588935 13743 net.cpp:129] Top shape: 64 1024 (65536)
I0409 03:30:23.588955 13743 net.cpp:137] Memory required for data: 64963840
I0409 03:30:23.588958 13743 layer_factory.hpp:77] Creating layer fc3
I0409 03:30:23.588968 13743 net.cpp:84] Creating Layer fc3
I0409 03:30:23.588971 13743 net.cpp:406] fc3 <- fc2
I0409 03:30:23.588976 13743 net.cpp:380] fc3 -> fc3
I0409 03:30:23.589114 13743 net.cpp:122] Setting up fc3
I0409 03:30:23.589146 13743 net.cpp:129] Top shape: 64 7 (448)
I0409 03:30:23.589150 13743 net.cpp:137] Memory required for data: 64965632
I0409 03:30:23.589156 13743 layer_factory.hpp:77] Creating layer Softmax_loss
I0409 03:30:23.589162 13743 net.cpp:84] Creating Layer Softmax_loss
I0409 03:30:23.589166 13743 net.cpp:406] Softmax_loss <- fc3
I0409 03:30:23.589170 13743 net.cpp:406] Softmax_loss <- label
I0409 03:30:23.589179 13743 net.cpp:380] Softmax_loss -> Softmax_loss
…
I0409 03:30:23.590065 13743 net.cpp:294] The NetState phase (1) differed from the phase (0) specified by a rule in layer data
I0409 03:30:23.590201 13743 net.cpp:51] Initializing net from parameters: 
name: "FaceEmotionNet"
state {
  phase: TEST
}
layer {
  name: "data"
  type: "Data"
  top: "data"
  top: "label"
  include {
    phase: TEST
  }
  transform_param {
    mirror: false
    crop_size: 42
    mean_file: "../../Preprocessing/data/val_mean.binaryproto"
  }
  data_param {
    source: "../../Preprocessing/data/img_val_lmdb"
    batch_size: 64
    backend: LMDB
  }
}
layer {
  name: "conv1"
  type: "Convolution"
  bottom: "data"
  top: "conv1"
  param {
    lr_mult: 1
  }
  param {
    lr_mult: 2
  }
  convolution_param {
    num_output: 32
    pad: 2
    kernel_size: 5
    stride: 1
    weight_filler {
      type: "xavier"
    }
    bias_filler {
      type: "constant"
    }
  }
}
layer {
  name: "conv1/bn"
  type: "BatchNorm"
  bottom: "conv1"
  top: "conv1"
  param {
    lr_mult: 0
    decay_mult: 0
  }
  param {
    lr_mult: 0
    decay_mult: 0
  }
  param {
    lr_mult: 0
    decay_mult: 0
  }
}
layer {
  name: "relu1"
  type: "ReLU"
  bottom: "conv1"
  top: "conv1"
}
layer {
  name: "pool1"
  type: "Pooling"
  bottom: "conv1"
  top: "pool1"
  pooling_param {
    pool: MAX
    kernel_size: 3
    stride: 2
  }
}
layer {
  name: "conv2"
  type: "Convolution"
  bottom: "pool1"
  top: "conv2"
  param {
    lr_mult: 1
  }
  param {
    lr_mult: 2
  }
  convolution_param {
    num_output: 32
    pad: 1
    kernel_size: 4
    stride: 1
    weight_filler {
      type: "xavier"
    }
    bias_filler {
      type: "constant"
    }
  }
}
layer {
  name: "conv2/bn"
  type: "BatchNorm"
  bottom: "conv2"
  top: "conv2"
  param {
    lr_mult: 0
    decay_mult: 0
  }
  param {
    lr_mult: 0
    decay_mult: 0
  }
  param {
    lr_mult: 0
    decay_mult: 0
  }
}
layer {
  name: "relu2"
  type: "ReLU"
  bottom: "conv2"
  top: "conv2"
}
layer {
  name: "pool2"
  type: "Pooling"
  bottom: "conv2"
  top: "pool2"
  pooling_param {
    pool: MAX
    kernel_size: 3
    stride: 2
  }
}
layer {
  name: "conv3"
  type: "Convolution"
  bottom: "pool2"
  top: "conv3"
  param {
    lr_mult: 1
  }
  param {
    lr_mult: 2
  }
  convolution_param {
    num_output: 64
    pad: 2
    kernel_size: 5
    stride: 1
    weight_filler {
      type: "xavier"
    }
    bias_filler {
      type: "constant"
    }
  }
}
layer {
  name: "conv3/bn"
  type: "BatchNorm"
  bottom: "conv3"
  top: "conv3"
  param {
    lr_mult: 0
    decay_mult: 0
  }
  param {
    lr_mult: 0
    decay_mult: 0
  }
  param {
    lr_mult: 0
    decay_mult: 0
  }
}
layer {
  name: "relu3"
  type: "ReLU"
  bottom: "conv3"
  top: "conv3"
}
layer {
  name: "pool3"
  type: "Pooling"
  bottom: "conv3"
  top: "pool3"
  pooling_param {
    pool: MAX
    kernel_size: 3
    stride: 2
  }
}
layer {
  name: "fc1"
  type: "InnerProduct"
  bottom: "pool3"
  top: "fc1"
  param {
    lr_mult: 1
  }
  param {
    lr_mult: 2
  }
  inner_product_param {
    num_output: 2048
    weight_filler {
      type: "xavier"
    }
    bias_filler {
      type: "constant"
    }
  }
}
layer {
  name: "drop1"
  type: "Dropout"
  bottom: "fc1"
  top: "fc1"
  dropout_param {
    dropout_ratio: 0.4
  }
}
layer {
  name: "fc2"
  type: "InnerProduct"
  bottom: "fc1"
  top: "fc2"
  param {
    lr_mult: 1
  }
  param {
    lr_mult: 2
  }
  inner_product_param {
    num_output: 1024
    weight_filler {
      type: "xavier"
    }
    bias_filler {
      type: "constant"
    }
  }
}
layer {
  name: "drop2"
  type: "Dropout"
  bottom: "fc2"
  top: "fc2"
  dropout_param {
    dropout_ratio: 0.4
  }
}
layer {
  name: "fc3"
  type: "InnerProduct"
  bottom: "fc2"
  top: "fc3"
  param {
    lr_mult: 1
  }
  param {
    lr_mult: 2
  }
  inner_product_param {
    num_output: 7
    weight_filler {
      type: "xavier"
    }
    bias_filler {
      type: "constant"
    }
  }
}
layer {
  name: "accuracy"
  type: "Accuracy"
  bottom: "fc3"
  bottom: "label"
  top: "accuracy"
  include {
    phase: TEST
  }
}
layer {
  name: "Softmax_loss"
  type: "SoftmaxWithLoss"
  bottom: "fc3"
  bottom: "label"
  top: "Softmax_loss"
}
I0409 03:30:23.590306 13743 layer_factory.hpp:77] Creating layer data
I0409 03:30:23.590378 13743 db_lmdb.cpp:35] Opened lmdb ../../Preprocessing/data/img_val_lmdb
I0409 03:30:23.590395 13743 net.cpp:84] Creating Layer data
I0409 03:30:23.590404 13743 net.cpp:380] data -> data
I0409 03:30:23.590414 13743 net.cpp:380] data -> label
I0409 03:30:23.590422 13743 data_transformer.cpp:25] Loading mean file from: ../../Preprocessing/data/val_mean.binaryproto
I0409 03:30:23.590595 13743 data_layer.cpp:45] output data size: 64,1,42,42
I0409 03:30:23.593070 13743 net.cpp:122] Setting up data
I0409 03:30:23.593096 13743 net.cpp:129] Top shape: 64 1 42 42 (112896)
I0409 03:30:23.593117 13743 net.cpp:129] Top shape: 64 (64)
I0409 03:30:23.593120 13743 net.cpp:137] Memory required for data: 451840
I0409 03:30:23.593155 13743 layer_factory.hpp:77] Creating layer label_data_1_split
I0409 03:30:23.593166 13743 net.cpp:84] Creating Layer label_data_1_split
I0409 03:30:23.593170 13743 net.cpp:406] label_data_1_split <- label
I0409 03:30:23.593180 13743 net.cpp:380] label_data_1_split -> label_data_1_split_0
I0409 03:30:23.593189 13743 net.cpp:380] label_data_1_split -> label_data_1_split_1
I0409 03:30:23.593355 13743 net.cpp:122] Setting up label_data_1_split
I0409 03:30:23.593376 13743 net.cpp:129] Top shape: 64 (64)
I0409 03:30:23.593380 13743 net.cpp:129] Top shape: 64 (64)
I0409 03:30:23.593384 13743 net.cpp:137] Memory required for data: 452352
I0409 03:30:23.593387 13743 layer_factory.hpp:77] Creating layer conv1
I0409 03:30:23.593400 13743 net.cpp:84] Creating Layer conv1
I0409 03:30:23.593405 13743 net.cpp:406] conv1 <- data
I0409 03:30:23.593411 13743 net.cpp:380] conv1 -> conv1
I0409 03:30:23.595562 13743 net.cpp:122] Setting up conv1
I0409 03:30:23.595600 13743 net.cpp:129] Top shape: 64 32 42 42 (3612672)
I0409 03:30:23.595610 13743 net.cpp:137] Memory required for data: 14903040
I0409 03:30:23.595625 13743 layer_factory.hpp:77] Creating layer conv1/bn
I0409 03:30:23.595635 13743 net.cpp:84] Creating Layer conv1/bn
I0409 03:30:23.595649 13743 net.cpp:406] conv1/bn <- conv1
I0409 03:30:23.595656 13743 net.cpp:367] conv1/bn -> conv1 (in-place)
I0409 03:30:23.595902 13743 net.cpp:122] Setting up conv1/bn
I0409 03:30:23.595922 13743 net.cpp:129] Top shape: 64 32 42 42 (3612672)
I0409 03:30:23.595927 13743 net.cpp:137] Memory required for data: 29353728
I0409 03:30:23.595937 13743 layer_factory.hpp:77] Creating layer relu1
I0409 03:30:23.595943 13743 net.cpp:84] Creating Layer relu1
I0409 03:30:23.595947 13743 net.cpp:406] relu1 <- conv1
I0409 03:30:23.595952 13743 net.cpp:367] relu1 -> conv1 (in-place)
I0409 03:30:23.596588 13743 net.cpp:122] Setting up relu1
I0409 03:30:23.596613 13743 net.cpp:129] Top shape: 64 32 42 42 (3612672)
I0409 03:30:23.596617 13743 net.cpp:137] Memory required for data: 43804416
I0409 03:30:23.596621 13743 layer_factory.hpp:77] Creating layer pool1
I0409 03:30:23.596637 13743 net.cpp:84] Creating Layer pool1
I0409 03:30:23.596642 13743 net.cpp:406] pool1 <- conv1
I0409 03:30:23.596665 13743 net.cpp:380] pool1 -> pool1
I0409 03:30:23.596732 13743 net.cpp:122] Setting up pool1
I0409 03:30:23.596763 13743 net.cpp:129] Top shape: 64 32 21 21 (903168)
I0409 03:30:23.596766 13743 net.cpp:137] Memory required for data: 47417088
I0409 03:30:23.596771 13743 layer_factory.hpp:77] Creating layer conv2
I0409 03:30:23.596781 13743 net.cpp:84] Creating Layer conv2
I0409 03:30:23.596786 13743 net.cpp:406] conv2 <- pool1
I0409 03:30:23.596793 13743 net.cpp:380] conv2 -> conv2
I0409 03:30:23.598912 13743 net.cpp:122] Setting up conv2
I0409 03:30:23.598942 13743 net.cpp:129] Top shape: 64 32 20 20 (819200)
I0409 03:30:23.598950 13743 net.cpp:137] Memory required for data: 50693888
I0409 03:30:23.598958 13743 layer_factory.hpp:77] Creating layer conv2/bn
I0409 03:30:23.598966 13743 net.cpp:84] Creating Layer conv2/bn
I0409 03:30:23.598971 13743 net.cpp:406] conv2/bn <- conv2
I0409 03:30:23.598976 13743 net.cpp:367] conv2/bn -> conv2 (in-place)
I0409 03:30:23.599236 13743 net.cpp:122] Setting up conv2/bn
I0409 03:30:23.599254 13743 net.cpp:129] Top shape: 64 32 20 20 (819200)
I0409 03:30:23.599258 13743 net.cpp:137] Memory required for data: 53970688
I0409 03:30:23.599268 13743 layer_factory.hpp:77] Creating layer relu2
I0409 03:30:23.599277 13743 net.cpp:84] Creating Layer relu2
I0409 03:30:23.599282 13743 net.cpp:406] relu2 <- conv2
I0409 03:30:23.599287 13743 net.cpp:367] relu2 -> conv2 (in-place)
I0409 03:30:23.599755 13743 net.cpp:122] Setting up relu2
I0409 03:30:23.599779 13743 net.cpp:129] Top shape: 64 32 20 20 (819200)
I0409 03:30:23.599784 13743 net.cpp:137] Memory required for data: 57247488
I0409 03:30:23.599787 13743 layer_factory.hpp:77] Creating layer pool2
I0409 03:30:23.599797 13743 net.cpp:84] Creating Layer pool2
I0409 03:30:23.599800 13743 net.cpp:406] pool2 <- conv2
I0409 03:30:23.599805 13743 net.cpp:380] pool2 -> pool2
I0409 03:30:23.599865 13743 net.cpp:122] Setting up pool2
I0409 03:30:23.599882 13743 net.cpp:129] Top shape: 64 32 10 10 (204800)
I0409 03:30:23.599885 13743 net.cpp:137] Memory required for data: 58066688
I0409 03:30:23.599889 13743 layer_factory.hpp:77] Creating layer conv3
I0409 03:30:23.599915 13743 net.cpp:84] Creating Layer conv3
I0409 03:30:23.599920 13743 net.cpp:406] conv3 <- pool2
I0409 03:30:23.599926 13743 net.cpp:380] conv3 -> conv3
I0409 03:30:23.601835 13743 net.cpp:122] Setting up conv3
I0409 03:30:23.601874 13743 net.cpp:129] Top shape: 64 64 10 10 (409600)
I0409 03:30:23.601879 13743 net.cpp:137] Memory required for data: 59705088
I0409 03:30:23.601886 13743 layer_factory.hpp:77] Creating layer conv3/bn
I0409 03:30:23.601896 13743 net.cpp:84] Creating Layer conv3/bn
I0409 03:30:23.601899 13743 net.cpp:406] conv3/bn <- conv3
I0409 03:30:23.601905 13743 net.cpp:367] conv3/bn -> conv3 (in-place)
I0409 03:30:23.602105 13743 net.cpp:122] Setting up conv3/bn
I0409 03:30:23.602123 13743 net.cpp:129] Top shape: 64 64 10 10 (409600)
I0409 03:30:23.602128 13743 net.cpp:137] Memory required for data: 61343488
I0409 03:30:23.602133 13743 layer_factory.hpp:77] Creating layer relu3
I0409 03:30:23.602139 13743 net.cpp:84] Creating Layer relu3
I0409 03:30:23.602142 13743 net.cpp:406] relu3 <- conv3
I0409 03:30:23.602147 13743 net.cpp:367] relu3 -> conv3 (in-place)
I0409 03:30:23.602463 13743 net.cpp:122] Setting up relu3
I0409 03:30:23.602488 13743 net.cpp:129] Top shape: 64 64 10 10 (409600)
I0409 03:30:23.602491 13743 net.cpp:137] Memory required for data: 62981888
I0409 03:30:23.602495 13743 layer_factory.hpp:77] Creating layer pool3
I0409 03:30:23.602502 13743 net.cpp:84] Creating Layer pool3
I0409 03:30:23.602505 13743 net.cpp:406] pool3 <- conv3
I0409 03:30:23.602510 13743 net.cpp:380] pool3 -> pool3
I0409 03:30:23.602560 13743 net.cpp:122] Setting up pool3
I0409 03:30:23.602576 13743 net.cpp:129] Top shape: 64 64 5 5 (102400)
I0409 03:30:23.602581 13743 net.cpp:137] Memory required for data: 63391488
I0409 03:30:23.602583 13743 layer_factory.hpp:77] Creating layer fc1
I0409 03:30:23.602592 13743 net.cpp:84] Creating Layer fc1
I0409 03:30:23.602596 13743 net.cpp:406] fc1 <- pool3
I0409 03:30:23.602602 13743 net.cpp:380] fc1 -> fc1
I0409 03:30:23.626232 13743 net.cpp:122] Setting up fc1
I0409 03:30:23.626263 13743 net.cpp:129] Top shape: 64 2048 (131072)
I0409 03:30:23.626268 13743 net.cpp:137] Memory required for data: 63915776
I0409 03:30:23.626281 13743 layer_factory.hpp:77] Creating layer drop1
I0409 03:30:23.626291 13743 net.cpp:84] Creating Layer drop1
I0409 03:30:23.626294 13743 net.cpp:406] drop1 <- fc1
I0409 03:30:23.626303 13743 net.cpp:367] drop1 -> fc1 (in-place)
I0409 03:30:23.626332 13743 net.cpp:122] Setting up drop1
I0409 03:30:23.626339 13743 net.cpp:129] Top shape: 64 2048 (131072)
I0409 03:30:23.626343 13743 net.cpp:137] Memory required for data: 64440064
I0409 03:30:23.626345 13743 layer_factory.hpp:77] Creating layer fc2
I0409 03:30:23.626358 13743 net.cpp:84] Creating Layer fc2
I0409 03:30:23.626374 13743 net.cpp:406] fc2 <- fc1
I0409 03:30:23.626380 13743 net.cpp:380] fc2 -> fc2
I0409 03:30:23.641683 13743 net.cpp:122] Setting up fc2
I0409 03:30:23.641723 13743 net.cpp:129] Top shape: 64 1024 (65536)
I0409 03:30:23.641728 13743 net.cpp:137] Memory required for data: 64702208
I0409 03:30:23.641736 13743 layer_factory.hpp:77] Creating layer drop2
I0409 03:30:23.641746 13743 net.cpp:84] Creating Layer drop2
I0409 03:30:23.641750 13743 net.cpp:406] drop2 <- fc2
I0409 03:30:23.641757 13743 net.cpp:367] drop2 -> fc2 (in-place)
I0409 03:30:23.641789 13743 net.cpp:122] Setting up drop2
I0409 03:30:23.641795 13743 net.cpp:129] Top shape: 64 1024 (65536)
I0409 03:30:23.641798 13743 net.cpp:137] Memory required for data: 64964352
I0409 03:30:23.641800 13743 layer_factory.hpp:77] Creating layer fc3
I0409 03:30:23.641809 13743 net.cpp:84] Creating Layer fc3
I0409 03:30:23.641813 13743 net.cpp:406] fc3 <- fc2
I0409 03:30:23.641818 13743 net.cpp:380] fc3 -> fc3
I0409 03:30:23.641973 13743 net.cpp:122] Setting up fc3
I0409 03:30:23.641993 13743 net.cpp:129] Top shape: 64 7 (448)
I0409 03:30:23.641996 13743 net.cpp:137] Memory required for data: 64966144
I0409 03:30:23.642001 13743 layer_factory.hpp:77] Creating layer fc3_fc3_0_split
I0409 03:30:23.642009 13743 net.cpp:84] Creating Layer fc3_fc3_0_split
I0409 03:30:23.642011 13743 net.cpp:406] fc3_fc3_0_split <- fc3
I0409 03:30:23.642019 13743 net.cpp:380] fc3_fc3_0_split -> fc3_fc3_0_split_0
I0409 03:30:23.642026 13743 net.cpp:380] fc3_fc3_0_split -> fc3_fc3_0_split_1
I0409 03:30:23.642071 13743 net.cpp:122] Setting up fc3_fc3_0_split
I0409 03:30:23.642097 13743 net.cpp:129] Top shape: 64 7 (448)
I0409 03:30:23.642102 13743 net.cpp:129] Top shape: 64 7 (448)
I0409 03:30:23.642104 13743 net.cpp:137] Memory required for data: 64969728
I0409 03:30:23.642108 13743 layer_factory.hpp:77] Creating layer accuracy
I0409 03:30:23.642122 13743 net.cpp:84] Creating Layer accuracy
I0409 03:30:23.642125 13743 net.cpp:406] accuracy <- fc3_fc3_0_split_0
I0409 03:30:23.642130 13743 net.cpp:406] accuracy <- label_data_1_split_0
I0409 03:30:23.642144 13743 net.cpp:380] accuracy -> accuracy
…
